…
Initialized folder: savedModels/ALGORITHM$Feb-28_02:09:28:767149$/
Import package name: savedModels.ALGORITHM$Feb-28_02:09:28:767149$

Initializing network...

*********************************************************************
Initializing collectors...
Collectors initialized.
Initialization time elapsed:   0.005s
*********************************************************************
MU(S) summary:
_________________________________________________________________
Layer (type)                 Output Shape              Param #   
=================================================================
input_1 (InputLayer)         (None, 123)               0         
_________________________________________________________________
dense_1 (Dense)              (None, 100)               12400     
_________________________________________________________________
dense_2 (Dense)              (None, 100)               10100     
_________________________________________________________________
dense_3 (Dense)              (None, 2)                 202       
=================================================================
Total params: 22,702
Trainable params: 22,702
Non-trainable params: 0
_________________________________________________________________
V(S) summary:
_________________________________________________________________
Layer (type)                 Output Shape              Param #   
=================================================================
input_2 (InputLayer)         (None, 123)               0         
_________________________________________________________________
dense_4 (Dense)              (None, 100)               12400     
_________________________________________________________________
dense_5 (Dense)              (None, 100)               10100     
_________________________________________________________________
dense_6 (Dense)              (None, 1)                 101       
=================================================================
Total params: 22,601
Trainable params: 22,601
Non-trainable params: 0
_________________________________________________________________

******************************************************************
Beginning initial experience collection...
0 | 641 | 642 | 643 | 644 | 645 | 646 | 647 | 648 | 649 | 6410 | 641
…
++++++++++++++++++++++++++++++++++++++++++++++++++++++++++++++++++
Training done.

--------
Training time elapsed:               8h : 47m : 55s
Average time per update:    0.063 seconds
--------

%%%%%%%%%%%%%%%%%%%%%%%%%%%%%%%%%%%%%%%%%%%%%%%%%%%%%%%%%%%%%%
Performing post-training tests...


~~~~~~~~~~~~~~~~~~~~~~~~~~~~~~~~~~~~~~~~~~~~~~~~~~~~~~~~~~~~~~~~~
Testing test ...

MU(S) summary:
_________________________________________________________________
Layer (type)                 Output Shape              Param #   
=================================================================
input_1 (InputLayer)         (None, 123)               0         
_________________________________________________________________
dense_1 (Dense)              (None, 100)               12400     
_________________________________________________________________
dense_2 (Dense)              (None, 100)               10100     
_________________________________________________________________
dense_3 (Dense)              (None, 2)                 202       
=================================================================
Total params: 22,702
Trainable params: 22,702
Non-trainable params: 0
_________________________________________________________________
V(S) summary:
_________________________________________________________________
Layer (type)                 Output Shape              Param #   
=================================================================
input_2 (InputLayer)         (None, 123)               0         
_________________________________________________________________
dense_4 (Dense)              (None, 100)               12400     
_________________________________________________________________
dense_5 (Dense)              (None, 100)               10100     
_________________________________________________________________
dense_6 (Dense)              (None, 1)                 101       
=================================================================
Total params: 22,601
Trainable params: 22,601
Non-trainable params: 0
_________________________________________________________________
MU(S) summary:
_________________________________________________________________
Layer (type)                 Output Shape              Param #   
=================================================================
input_1 (InputLayer)         (None, 123)               0         
_________________________________________________________________
dense_1 (Dense)              (None, 100)               12400     
_________________________________________________________________
dense_2 (Dense)              (None, 100)               10100     
_________________________________________________________________
dense_3 (Dense)              (None, 2)                 202       
=================================================================
Total params: 22,702
Trainable params: 22,702
Non-trainable params: 0
_________________________________________________________________
V(S) summary:
_________________________________________________________________
Layer (type)                 Output Shape              Param #   
=================================================================
input_2 (InputLayer)         (None, 123)               0         
_________________________________________________________________
dense_4 (Dense)              (None, 100)               12400     
_________________________________________________________________
dense_5 (Dense)              (None, 100)               10100     
_________________________________________________________________
dense_6 (Dense)              (None, 1)                 101       
=================================================================
Total params: 22,601
Trainable params: 22,601
Non-trainable params: 0
_________________________________________________________________
MU(S) summary:
_________________________________________________________________
Layer (type)                 Output Shape              Param #   
=================================================================
input_1 (InputLayer)         (None, 123)               0         
_________________________________________________________________
dense_1 (Dense)              (None, 100)               12400     
_________________________________________________________________
dense_2 (Dense)              (None, 100)               10100     
_________________________________________________________________
dense_3 (Dense)              (None, 2)                 202       
=================================================================
Total params: 22,702
Trainable params: 22,702
Non-trainable params: 0
_________________________________________________________________
V(S) summary:
_________________________________________________________________
Layer (type)                 Output Shape              Param #   
=================================================================
input_2 (InputLayer)         (None, 123)               0         
_________________________________________________________________
dense_4 (Dense)              (None, 100)               12400     
_________________________________________________________________
dense_5 (Dense)              (None, 100)               10100     
_________________________________________________________________
dense_6 (Dense)              (None, 1)                 101       
=================================================================
Total params: 22,601
Trainable params: 22,601
Non-trainable params: 0
_________________________________________________________________
MU(S) summary:
_________________________________________________________________
Layer (type)                 Output Shape              Param #   
=================================================================
input_1 (InputLayer)         (None, 123)               0         
_________________________________________________________________
dense_1 (Dense)              (None, 100)               12400     
_________________________________________________________________
dense_2 (Dense)              (None, 100)               10100     
_________________________________________________________________
dense_3 (Dense)              (None, 2)                 202       
=================================================================
Total params: 22,702
Trainable params: 22,702
Non-trainable params: 0
_________________________________________________________________
V(S) summary:
_________________________________________________________________
Layer (type)                 Output Shape              Param #   
=================================================================
input_2 (InputLayer)         (None, 123)               0         
_________________________________________________________________
dense_4 (Dense)              (None, 100)               12400     
_________________________________________________________________
dense_5 (Dense)              (None, 100)               10100     
_________________________________________________________________
dense_6 (Dense)              (None, 1)                 101       
=================================================================
Total params: 22,601
Trainable params: 22,601
Non-trainable params: 0
_________________________________________________________________
MU(S) summary:
_________________________________________________________________
Layer (type)                 Output Shape              Param #   
=================================================================
input_1 (InputLayer)         (None, 123)               0         
_________________________________________________________________
dense_1 (Dense)              (None, 100)               12400     
_________________________________________________________________
dense_2 (Dense)              (None, 100)               10100     
_________________________________________________________________
dense_3 (Dense)              (None, 2)                 202       
=================================================================
Total params: 22,702
Trainable params: 22,702
Non-trainable params: 0
_________________________________________________________________
V(S) summary:
_________________________________________________________________
Layer (type)                 Output Shape              Param #   
=================================================================
input_2 (InputLayer)         (None, 123)               0         
_________________________________________________________________
dense_4 (Dense)              (None, 100)               12400     
_________________________________________________________________
dense_5 (Dense)              (None, 100)               10100     
_________________________________________________________________
dense_6 (Dense)              (None, 1)                 101       
=================================================================
Total params: 22,601
Trainable params: 22,601
Non-trainable params: 0
_________________________________________________________________
MU(S) summary:
_________________________________________________________________
Layer (type)                 Output Shape              Param #   
=================================================================
input_1 (InputLayer)         (None, 123)               0         
_________________________________________________________________
dense_1 (Dense)              (None, 100)               12400     
_________________________________________________________________
dense_2 (Dense)              (None, 100)               10100     
_________________________________________________________________
dense_3 (Dense)              (None, 2)                 202       
=================================================================
Total params: 22,702
Trainable params: 22,702
Non-trainable params: 0
_________________________________________________________________
V(S) summary:
_________________________________________________________________
Layer (type)                 Output Shape              Param #   
=================================================================
input_2 (InputLayer)         (None, 123)               0         
_________________________________________________________________
dense_4 (Dense)              (None, 100)               12400     
_________________________________________________________________
dense_5 (Dense)              (None, 100)               10100     
_________________________________________________________________
dense_6 (Dense)              (None, 1)                 101       
=================================================================
Total params: 22,601
Trainable params: 22,601
Non-trainable params: 0
_________________________________________________________________
MU(S) summary:
_________________________________________________________________
Layer (type)                 Output Shape              Param #   
=================================================================
input_1 (InputLayer)         (None, 123)               0         
_________________________________________________________________
dense_1 (Dense)              (None, 100)               12400     
_________________________________________________________________
dense_2 (Dense)              (None, 100)               10100     
_________________________________________________________________
dense_3 (Dense)              (None, 2)                 202       
=================================================================
Total params: 22,702
Trainable params: 22,702
Non-trainable params: 0
_________________________________________________________________
V(S) summary:
_________________________________________________________________
Layer (type)                 Output Shape              Param #   
=================================================================
input_2 (InputLayer)         (None, 123)               0         
_________________________________________________________________
dense_4 (Dense)              (None, 100)               12400     
_________________________________________________________________
dense_5 (Dense)              (None, 100)               10100     
_________________________________________________________________
dense_6 (Dense)              (None, 1)                 101       
=================================================================
Total params: 22,601
Trainable params: 22,601
Non-trainable params: 0
_________________________________________________________________
MU(S) summary:
_________________________________________________________________
Layer (type)                 Output Shape              Param #   
=================================================================
input_1 (InputLayer)         (None, 123)               0         
_________________________________________________________________
dense_1 (Dense)              (None, 100)               12400     
_________________________________________________________________
dense_2 (Dense)              (None, 100)               10100     
_________________________________________________________________
dense_3 (Dense)              (None, 2)                 202       
=================================================================
Total params: 22,702
Trainable params: 22,702
Non-trainable params: 0
_________________________________________________________________
V(S) summary:
_________________________________________________________________
Layer (type)                 Output Shape              Param #   
=================================================================
input_2 (InputLayer)         (None, 123)               0         
_________________________________________________________________
dense_4 (Dense)              (None, 100)               12400     
_________________________________________________________________
dense_5 (Dense)              (None, 100)               10100     
_________________________________________________________________
dense_6 (Dense)              (None, 1)                 101       
=================================================================
Total params: 22,601
Trainable params: 22,601
Non-trainable params: 0
_________________________________________________________________
MU(S) summary:
_________________________________________________________________
Layer (type)                 Output Shape              Param #   
=================================================================
input_1 (InputLayer)         (None, 123)               0         
_________________________________________________________________
dense_1 (Dense)              (None, 100)               12400     
_________________________________________________________________
dense_2 (Dense)              (None, 100)               10100     
_________________________________________________________________
dense_3 (Dense)              (None, 2)                 202       
=================================================================
Total params: 22,702
Trainable params: 22,702
Non-trainable params: 0
_________________________________________________________________
V(S) summary:
_________________________________________________________________
Layer (type)                 Output Shape              Param #   
=================================================================
input_2 (InputLayer)         (None, 123)               0         
_________________________________________________________________
dense_4 (Dense)              (None, 100)               12400     
_________________________________________________________________
dense_5 (Dense)              (None, 100)               10100     
_________________________________________________________________
dense_6 (Dense)              (None, 1)                 101       
=================================================================
Total params: 22,601
Trainable params: 22,601
Non-trainable params: 0
_________________________________________________________________
MU(S) summary:
_________________________________________________________________
Layer (type)                 Output Shape              Param #   
=================================================================
input_1 (InputLayer)         (None, 123)               0         
_________________________________________________________________
dense_1 (Dense)              (None, 100)               12400     
_________________________________________________________________
dense_2 (Dense)              (None, 100)               10100     
_________________________________________________________________
dense_3 (Dense)              (None, 2)                 202       
=================================================================
Total params: 22,702
Trainable params: 22,702
Non-trainable params: 0
_________________________________________________________________
V(S) summary:
_________________________________________________________________
Layer (type)                 Output Shape              Param #   
=================================================================
input_2 (InputLayer)         (None, 123)               0         
_________________________________________________________________
dense_4 (Dense)              (None, 100)               12400     
_________________________________________________________________
dense_5 (Dense)              (None, 100)               10100     
_________________________________________________________________
dense_6 (Dense)              (None, 1)                 101       
=================================================================
Total params: 22,601
Trainable params: 22,601
Non-trainable params: 0
_________________________________________________________________
Initializing 10 testers...
~~~~~~~~~~~~~~~~~~~~~~~~~~~~~~~~~~~~~~~~~~~~~~~~~~~~~~~~~~~~~~~~~


~~~~~~~~~~~~~~~~~~~~~~~~~~~~~~~~~~~~~~~~~~~~~~~~~~~~~~~~~~~~~~~~~
Final test's test runs finished.
…
Plotting Mass plot test phase...
Shape of allList: (10, 20000)

Plotting Pellet_Collection...

Plotting Mass plot test phase...
Shape of allList: (10, 20000)

Final tests completed.


%%%%%%%%%%%%%%%%%%%%%%%%%%%%%%%%%%%%%%%%%%%%%%%%%%%%%%%%%%%%%%
Performing during training tests...

~~~~~~~~~~~~~~~~~~~~~~~~~~~~~~~~~~~~~~~~~~~~~~~~~~~~~~~~~~~~~~~~~
Testing test ...

MU(S) summary:
_________________________________________________________________
Layer (type)                 Output Shape              Param #   
=================================================================
input_1 (InputLayer)         (None, 123)               0         
_________________________________________________________________
dense_1 (Dense)              (None, 100)               12400     
_________________________________________________________________
dense_2 (Dense)              (None, 100)               10100     
_________________________________________________________________
dense_3 (Dense)              (None, 2)                 202       
=================================================================
Total params: 22,702
Trainable params: 22,702
Non-trainable params: 0
_________________________________________________________________
V(S) summary:
_________________________________________________________________
Layer (type)                 Output Shape              Param #   
=================================================================
input_2 (InputLayer)         (None, 123)               0         
_________________________________________________________________
dense_4 (Dense)              (None, 100)               12400     
_________________________________________________________________
dense_5 (Dense)              (None, 100)               10100     
_________________________________________________________________
dense_6 (Dense)              (None, 1)                 101       
=================================================================
Total params: 22,601
Trainable params: 22,601
Non-trainable params: 0
_________________________________________________________________
MU(S) summary:
_________________________________________________________________
Layer (type)                 Output Shape              Param #   
=================================================================
input_1 (InputLayer)         (None, 123)               0         
_________________________________________________________________
dense_1 (Dense)              (None, 100)               12400     
_________________________________________________________________
dense_2 (Dense)              (None, 100)               10100     
_________________________________________________________________
dense_3 (Dense)              (None, 2)                 202       
=================================================================
Total params: 22,702
Trainable params: 22,702
Non-trainable params: 0
_________________________________________________________________
V(S) summary:
_________________________________________________________________
Layer (type)                 Output Shape              Param #   
=================================================================
input_2 (InputLayer)         (None, 123)               0         
_________________________________________________________________
dense_4 (Dense)              (None, 100)               12400     
_________________________________________________________________
dense_5 (Dense)              (None, 100)               10100     
_________________________________________________________________
dense_6 (Dense)              (None, 1)                 101       
=================================================================
Total params: 22,601
Trainable params: 22,601
Non-trainable params: 0
_________________________________________________________________
MU(S) summary:
_________________________________________________________________
Layer (type)                 Output Shape              Param #   
=================================================================
input_1 (InputLayer)         (None, 123)               0         
_________________________________________________________________
dense_1 (Dense)              (None, 100)               12400     
_________________________________________________________________
dense_2 (Dense)              (None, 100)               10100     
_________________________________________________________________
dense_3 (Dense)              (None, 2)                 202       
=================================================================
Total params: 22,702
Trainable params: 22,702
Non-trainable params: 0
_________________________________________________________________
V(S) summary:
_________________________________________________________________
Layer (type)                 Output Shape              Param #   
=================================================================
input_2 (InputLayer)         (None, 123)               0         
_________________________________________________________________
dense_4 (Dense)              (None, 100)               12400     
_________________________________________________________________
dense_5 (Dense)              (None, 100)               10100     
_________________________________________________________________
dense_6 (Dense)              (None, 1)                 101       
=================================================================
Total params: 22,601
Trainable params: 22,601
Non-trainable params: 0
_________________________________________________________________
MU(S) summary:
_________________________________________________________________
Layer (type)                 Output Shape              Param #   
=================================================================
input_1 (InputLayer)         (None, 123)               0         
_________________________________________________________________
dense_1 (Dense)              (None, 100)               12400     
_________________________________________________________________
dense_2 (Dense)              (None, 100)               10100     
_________________________________________________________________
dense_3 (Dense)              (None, 2)                 202       
=================================================================
Total params: 22,702
Trainable params: 22,702
Non-trainable params: 0
_________________________________________________________________
V(S) summary:
_________________________________________________________________
Layer (type)                 Output Shape              Param #   
=================================================================
input_2 (InputLayer)         (None, 123)               0         
_________________________________________________________________
dense_4 (Dense)              (None, 100)               12400     
_________________________________________________________________
dense_5 (Dense)              (None, 100)               10100     
_________________________________________________________________
dense_6 (Dense)              (None, 1)                 101       
=================================================================
Total params: 22,601
Trainable params: 22,601
Non-trainable params: 0
_________________________________________________________________
MU(S) summary:
_________________________________________________________________
Layer (type)                 Output Shape              Param #   
=================================================================
input_1 (InputLayer)         (None, 123)               0         
_________________________________________________________________
dense_1 (Dense)              (None, 100)               12400     
_________________________________________________________________
dense_2 (Dense)              (None, 100)               10100     
_________________________________________________________________
dense_3 (Dense)              (None, 2)                 202       
=================================================================
Total params: 22,702
Trainable params: 22,702
Non-trainable params: 0
_________________________________________________________________
V(S) summary:
_________________________________________________________________
Layer (type)                 Output Shape              Param #   
=================================================================
input_2 (InputLayer)         (None, 123)               0         
_________________________________________________________________
dense_4 (Dense)              (None, 100)               12400     
_________________________________________________________________
dense_5 (Dense)              (None, 100)               10100     
_________________________________________________________________
dense_6 (Dense)              (None, 1)                 101       
=================================================================
Total params: 22,601
Trainable params: 22,601
Non-trainable params: 0
_________________________________________________________________
Initializing 5 testers...
~~~~~~~~~~~~~~~~~~~~~~~~~~~~~~~~~~~~~~~~~~~~~~~~~~~~~~~~~~~~~~~~~


~~~~~~~~~~~~~~~~~~~~~~~~~~~~~~~~~~~~~~~~~~~~~~~~~~~~~~~~~~~~~~~~~
0% test's test runs finished.

…
